…
.. GENERATED FROM PYTHON SOURCE LINES 177-178

It worked! Let's have a look at the model structure to see what changes have been made.

.. GENERATED FROM PYTHON SOURCE LINES 178-183

.. code-block:: default


    print("Subspace Denoising Autoencoder:\n", datamodule.subspace_method_train.autoencoder)
    print("Subspace Image CNN:\n", datamodule.subspace_method_train.img_unimodal)
    print("Fusion model:\n", trained_models_dict["DAETabImgMaps"])





.. rst-class:: sphx-glr-script-out

 .. code-block:: none

    Subspace Denoising Autoencoder:
     DenoisingAutoencoder(
      (upsampler): Sequential(
        (0): Linear(in_features=10, out_features=80, bias=True)
        (1): ReLU()
        (2): Linear(in_features=80, out_features=100, bias=True)
        (3): ReLU()
        (4): Linear(in_features=100, out_features=150, bias=True)
        (5): ReLU()
      )
      (downsampler): Sequential(
        (0): Linear(in_features=150, out_features=100, bias=True)
        (1): ReLU()
        (2): Linear(in_features=100, out_features=80, bias=True)
        (3): ReLU()
        (4): Linear(in_features=80, out_features=10, bias=True)
        (5): ReLU()
      )
      (loss): MSELoss()
    )
    Subspace Image CNN:
     ImgUnimodalDAE(
      (img_layers): ModuleDict(
        (layer 1): Sequential(
          (0): Conv2d(1, 40, kernel_size=(3, 3), stride=(1, 1))
          (1): ReLU()
          (2): MaxPool2d(kernel_size=(2, 2), stride=(2, 2), padding=0, dilation=1, ceil_mode=False)
        )
        (layer 2): Sequential(
          (0): Conv2d(40, 60, kernel_size=(3, 3), stride=(1, 1))
          (1): ReLU()
          (2): MaxPool2d(kernel_size=(2, 2), stride=(2, 2), padding=0, dilation=1, ceil_mode=False)
        )
        (layer 3): Sequential(
          (0): Conv2d(60, 85, kernel_size=(3, 3), stride=(1, 1))
          (1): ReLU()
          (2): MaxPool2d(kernel_size=(2, 2), stride=(2, 2), padding=0, dilation=1, ceil_mode=False)
        )
      )
      (fused_layers): Sequential(
        (0): Linear(in_features=8500, out_features=150, bias=True)
        (1): ReLU()
        (2): Linear(in_features=150, out_features=75, bias=True)
        (3): ReLU()
        (4): Linear(in_features=75, out_features=50, bias=True)
        (5): ReLU()
      )
      (final_prediction): Sequential(
        (0): Linear(in_features=50, out_features=1, bias=True)
      )
    )
    Fusion model:
     [BaseModel(
      (model): DAETabImgMaps(
        (fusion_layers): Sequential(
          (0): Linear(in_features=40390, out_features=420, bias=True)
          (1): ReLU()
          (2): Linear(in_features=420, out_features=100, bias=True)
          (3): ReLU()
          (4): Linear(in_features=100, out_features=78, bias=True)
        )
        (final_prediction): Sequential(
          (0): Linear(in_features=78, out_features=1, bias=True)
        )
      )
    )]




.. GENERATED FROM PYTHON SOURCE LINES 184-189

What happens when the modifications are incorrect?
----------------------------------------------------

Let's see what happens when we try to modify an **attribute that doesn't exist**.


.. GENERATED FROM PYTHON SOURCE LINES 189-205

.. code-block:: default


    layer_mods = {
        "denoising_autoencoder_subspace_method": {
…
7/7 [00:02<00:00,  3.12it/s]    Epoch 4: 100%|██████████| 7/7 [00:02<00:00,  3.12it/s]    Epoch 4: 100%|██████████| 7/7 [00:02<00:00,  3.11it/s]




.. GENERATED FROM PYTHON SOURCE LINES 262-264

**Wow it still works!**
Let's have a look at what the model structure looks like to see what changes have been made to keep the model valid.

.. GENERATED FROM PYTHON SOURCE LINES 264-267

.. code-block:: default


    print(datamodule.subspace_method_train.autoencoder)





.. rst-class:: sphx-glr-script-out

 .. code-block:: none

    DenoisingAutoencoder(
      (upsampler): Sequential(
        (0): Linear(in_features=10, out_features=100, bias=True)
        (1): ReLU()
        (2): Linear(in_features=100, out_features=200, bias=True)
        (3): ReLU()
        (4): Linear(in_features=200, out_features=450, bias=True)
        (5): ReLU()
      )
      (downsampler): Sequential(
        (0): Linear(in_features=450, out_features=256, bias=True)
        (1): ReLU()
        (2): Linear(in_features=256, out_features=128, bias=True)
        (3): ReLU()
        (4): Linear(in_features=128, out_features=10, bias=True)
        (5): ReLU()
      )
      (loss): MSELoss()
    )




.. GENERATED FROM PYTHON SOURCE LINES 268-278

As you can see, a few corrections have been made to the modifications:

* The ``upsampler`` has been modified to have the correct number of nodes in the final layer to match the ``latent_dim``.
* The ``downsample`` (which we didn't specify a modification for) now has the correct number of nodes in the first layer to match the ``latent_dim``.
…
